Machine Learning/job_recommendation_model.tflite (tflite, 768940 bytes, 10 tensors)

arith.constant f4 [104, 64]
00000000: edd2 1b3c 3a10 8fbd 57bf 3bbd bd3e 5bbd
00000010: c143 aebe 511a 9bbd 5a29 5fbe 7917 97be
00000020: 2497 10be 5da4 36be 0262 5fbe 5a28 993d
00000030: a1b0 0d3d 5b3d 7fbd c2ea b1be 2993 c03d
00000040: 0de0 e9bd 3b00 83be 6afb 50bc d012 73be
00000050: ca88 febc dab8 66bd 9675 cabd edeb 85be
00000060: 1356 da3d 9c73 9e3d b692 9dbe e907 423c
00000070: c91f 313d 023f acbe 7d59 4bbe 9601 29bd
00000080: 31e3 0cbe a578 87bd 12a7 2dbe c207 35be
00000090: ec19 793c a16e b2be 43c1 49bc 7880 75be
000000a0: bdb1 763d a2be 4ebe 26de d6be ce66 f93d
000000b0: 1ecd 22bc 87f9 94be fe0b 64be b06f 7bbe
000000c0: db4f 96be 657a 90bb 9d23 f43d f25a 1ebd
000000d0: f98b 6abd 2e16 a9bc 6967 ccbe 7fe0 b3be
000000e0: 0cad 44be 2323 953c 7601 49bd 9ec2 b2be
000000f0: 4bbc d23d 5220 193e 3cc3 83be 258f 57be
00000100: 5a34 28be ae7c 14bf 3337 ee3d 9e78 dcbc
00000110: b028 cabd b779 3cbe f2b8 d3b9 cc1d 98bc
00000120: 5f4d 7cbd 2f9a ddbe 6e86 533e b0ff 94be
00000130: 9052 00bf 63c2 d6bd 50dd acbe c368 80bd
00000140: 9dba 86be eca2 9dbe 7ac0 5dbe f0d4 05be
00000150: d903 0bbe 670e 1dbe 59ac deb9 8a63 b1be
00000160: 1855 93bc 124f 68be f18e d6bc f522 c83c
00000170: 8d5a 00be f668 91be 9095 f3be 678f 0f3e
00000180: 7192 893d 5f19 febc 9080 473d b662 af3d
00000190: ffaf 3bbe 7cde c3bc 6a21 553e ce82 abbe
000001a0: 6573 27be b6a7 b03d 3645 833b cba6 37be
000001b0: 801f 043d 216a 1fbe 90b6 93be f937 98bd
000001c0: 29e3 8abb c926 123e ebbe d6bd 6a8e d93d
000001d0: 56ba d0be 9b13 89be 8da5 d4bd 50d8 dabe
000001e0: 0adc a7be d105 bbbe 1a2c a4be 1dbc 93bd
000001f0: 86b4 19bd ab53 cf3d c7ee 49be f856 3ebd
00000200: e0e5 5cbe 7671 03be fdac b3bc eef6 6cbe
00000210: 85b0 73be 3835 213e 65ef 5fbe 74ee a8be
00000220: 7a20 9abc ac60 893d 8030 0bbe b894 1cbc
00000230: d483 82be 7ae2 b9be 5a73 53be e3cc 033e
00000240: 0c27 cbbb 7292 aa3b d6c2 8bbd 4e2e f53c
00000250: e385 cbba 871f c7be 69f0 f13c b121 9a3d
00000260: a90d be3c 0cca 033e 2d08 96bc 5464 dcbd
00000270: 0d05 f2bd 4124 11bf c600 54be 4785 b2be
00000280: 5fbe 56be 0b6f 083e 9048 24bd ac6b 3abe
00000290: 0821 80be 6d37 d2bd a4cc 08be d572 143e
000002a0: 30ef 2bbe d12e a2bd 3ee4 16be bc1a 82be
000002b0: a50a 4ebd 9be1 67be 6304 36bd 1125 3dbc
000002c0: 4295 08be 969d 55be fd2b 9ebb 1d4a 103d
000002d0: 1a79 debd 615b 403d 5019 cabe 0087 36be
000002e0: ce98 c5be 178a fcbe a3d9 a2be 4b0c 1bbd
000002f0: 353c b4be f8cb 4cbd 5d8f 9f3d b3ce ccbc
00000300: 73c8 4abe 0d1e b0be 904b 6dbb a963 d0bc
00000310: 52fd 6abe 4fe7 afbe 320b 533d d6d7 8fbe
00000320: 2596 8bbd c95e 993a 137b a93d 0eac 4fbe
00000330: ab92 5ebe 3137 aebd 7d0d 34bd 00c6 34be
00000340: b2b7 dfbe 3e0b 9dbe a500 63bd ec59 e6be
00000350: f993 61be d49e 0c3e 80d0 223c 9b34 b9bd
00000360: 58da ff3d 4fab 2abe d821 6b3d 1ba1 2dbe
00000370: ff01 3dbe 6594 e13d bf7d bdbe fff6 9abd
00000380: d5ca 2c3e 639c 29be 19ca 7ebd 595e 5a3e
00000390: 03d1 bcbe 98e9 f4bd 84a5 7d3d 55f6 a7be
000003a0: dbae acbc 7e50 27be bdce 06be 9850 09bf
000003b0: da6b c13c 1990 193d 2aca 84be 2d1a 91bd
000003c0: 5b19 21be 3c6a c3be 8ecc 1c3e 13d6 2fbe
000003d0: d5dd 9ebe 58cb 5bbe 7d40 00bf 9571 68be
000003e0: bd0d 58be adb1 dd3c 59a2 c3bd 24f3 03be
000003f0: ff83 67be 3cb1 27bf 7c22 a4be 87ec 453d
0.009510738 -0.06985517 -0.045836773 -0.05352663 -0.34036067 -0.07573379 -0.21793118 -0.29510096
-0.14120156 -0.17836137 -0.21814731 0.074783996 0.034592275 -0.062314373 -0.34749418 0.094030686
-0.114196874 -0.25586113 -0.012755254 -0.23737645 -0.031071085 -0.056328632 -0.09885709 -0.2615656
0.106609486 0.077368945 -0.30775994 0.011842706 0.043243203 -0.3364182 -0.19858356 -0.041261278
-0.13758542 -0.06614808 -0.16958264 -0.1767874 0.015203934 -0.34850028 -0.012314144 -0.23974788
0.0602281 -0.20189908 -0.4196636 0.121778116 -0.009936599 -0.29096624 -0.222702 -0.24554324
-0.293578 -0.004409122 0.11920855 -0.03866095 -0.057262395 -0.020640459 -0.39922646 -0.35132214
-0.19206637 0.018205231 -0.04907366 -0.34914106 0.1028982 0.14953735 -0.2573489 -0.21050699
-0.1642622 -0.58002746 0.11631622 -0.026912984 -0.09871042 -0.18405806 -0.0004038285 -0.018568896
-0.061597224 -0.43281695 0.2065675 -0.29101324 -0.5012598 -0.10486295 -0.33762598 -0.06269982
-0.2631425 -0.30788362 -0.21655455 -0.1306951 -0.13575687 -0.15337525 -0.0004247155 -0.34646255
-0.017984912 -0.22686413 -0.026191207 0.024430731 -0.12534542 -0.2840039 -0.47575045 0.14019547
0.067173846 -0.031017957 0.04870659 0.085637495 -0.18328856 -0.0239098 0.20813528 -0.33498234
-0.16352613 0.08625738 0.0040060533 -0.1793472 0.032256603 -0.15567829 -0.28850222 -0.07432551
-0.0042385054 0.14272608 -0.104856335 0.106228665 -0.40767163 -0.2677277 -0.10383139 -0.42743158
-0.32785064 -0.36527875 -0.32064897 -0.07213614 -0.037525676 0.1012338 -0.19719993 -0.04646966
-0.21572065 -0.1283625 -0.021933073 -0.23141071 -0.23797806 0.15742958 -0.21868666 -0.32994425
-0.018814314 0.06707892 -0.1359272 -0.009556942 -0.25491202 -0.363056 -0.20649472 0.12871127
-0.006199723 0.005205446 -0.068242714 0.029929306 -0.0015527572 -0.3889124 0.029533582 0.075259574
0.023199873 0.12870044 -0.018314445 -0.107613236 -0.118173696 -0.56695944 -0.2070342 -0.34867308
-0.20971058 0.1332361 -0.040108263 -0.18205136 -0.250252 -0.10264478 -0.13359314 0.1449693
-0.16790462 -0.07919086 -0.14735505 -0.25411022 -0.05030312 -0.22644655 -0.044437777 -0.011544482
-0.13338187 -0.20860896 -0.004827021 0.03522693 -0.10862942 0.046962146 -0.39472437 -0.17824936
-0.38593143 -0.49324104 -0.3180667 -0.03785352 -0.35202184 -0.049999207 0.07791016 -0.025000906
-0.19803028 -0.34397927 -0.003620837 -0.025438147 -0.22948197 -0.34356162 0.05152435 -0.28094357
-0.06815747 0.0011701222 0.08275428 -0.20280477 -0.21735637 -0.08506621 -0.043958176 -0.17653656
-0.43694836 -0.3067264 -0.055420537 -0.4499048 -0.22029103 0.13732463 0.009937406 -0.09043237
0.12492818 -0.16666912 0.057405323 -0.16955988 -0.18457793 0.11014632 -0.3701 -0.07566642
0.1687425 -0.16563563 -0.062204454 0.21325053 -0.36878213 -0.11958617 0.061925426 -0.32805124
-0.021079471 -0.16339299 -0.13164802 -0.536386 0.023610998 0.037490938 -0.2593549 -0.07085071
-0.15732329 -0.38166988 0.15312406 -0.17171507 -0.3102862 -0.21464288 -0.500984 -0.22699578
-0.2109899 0.027062261 -0.0955245 -0.1288572 -0.22608946 -0.65504813 -0.3205756 0.048321273

arith.constant1 f4 [64, 128]
00000000: 64c3 0d3e 8cbf 2d3e 91f3 bc3d 8f47 41be
00000010: c8fa 033e 091b 8abd 25bc 06bd 7be0 1e3e
00000020: 1863 01be 18ba 15bc c985 023c 203a 043e
00000030: ba94 ffbd ae64 15bd c661 77bb 1a0a d2bd
00000040: 27b7 bdbd 1571 963d 0b14 a53d 9df3 1bbe
00000050: 347b b03d aaf6 07bd f18f 15bd 47e8 e83b
00000060: 6572 873d d682 8fbd 0085 863d 35e4 78bd
00000070: c60b c5bd 67b1 f83d e2ce 43be 1a8d 4b3d
00000080: 3023 28bc 0cd4 8f3d ad64 01bc 3c7b fbbd
00000090: 15d1 cbbd f5e2 d23d 87ca 143d e2a6 f2bd
000000a0: b62e fd3d 6731 033c ce44 d53d 66bb c83d
000000b0: a61c 023e 3bb3 233c e8c1 2bbd 4334 9bbd
000000c0: 2c47 b5bd c0d3 00be 794e fe3d 3e67 ebbd
000000d0: 8c2e bdbd f9f4 973d 06e7 553e dcb3 e2bc
000000e0: 98d4 0cbe 4520 b9bd 1cc0 b8bd 8f92 ce3d
000000f0: 0513 2abe f5c3 4fbe d74a acbc cdab 8c3d
00000100: 1dca 843b a14d 42be 0555 113e 2bb5 1dbe
00000110: b382 b43d c53f 003e 6cbb 833d 0a47 07be
00000120: dabe 7e3a 69b2 5cbd ac5f c23d 3a99 4abe
00000130: 2b50 08bd 0945 33be f107 c23c f3e5 9fbd
00000140: 6f90 c6bd 8ec3 323e 8255 58be 4b92 293e
00000150: b194 313d 0523 573d 6815 e3bd 4f99 013e
00000160: 6c71 69bd 0216 6bbe e85a babd e0ee ad3d
00000170: abbd 61bd 0ccd 0bbd 3512 01bd 96e3 16be
00000180: cc99 763d 4137 78be e0c8 26bd a7b3 22be
00000190: cf4c 493d 80e3 4fbe 56b9 3ebe 67f4 f3bc
000001a0: 77b6 093c 4f3f f5bd 97b6 d2ba 7d15 53be
000001b0: 40d0 813d 809e 0e3e 5e8d 053d ceaf ff3c
000001c0: 0579 00be cc09 ccbd d338 60bd ceb6 90bc
000001d0: d7c1 0d3e ac4b 88be 1362 6cbe 2526 a6bb
000001e0: 3d70 c23d 0180 adbb 8364 7a3a cfe0 14be
000001f0: a6cc 0f3e c850 993b 132d 83bd 934e 7ebe
00000200: 31cd a13d 8768 0b3e 6d72 29be 2ba9 c83d
00000210: 371f e93d 86e4 7cbe 434e ba3c 5407 3a3e
00000220: b935 e03d a5da f2bc 0e18 ab3d 78b4 353e
00000230: 278a 023e 4e40 39bc 29e5 953e 3451 0a3e
00000240: 62b7 17be f90e 7fbe 587e 7c3e 7edb 0dbe
00000250: 68be 27be 942c 7c3e f88e 663e 24c1 e03d
00000260: 4d04 2d3e eff3 cebd a9c6 623e dd50 693e
00000270: b15a 413d b9f7 c1bd 9d63 8a3d f7d0 a33d
00000280: 3108 073e 4f0a 293e fec0 5b3e ecfd 1fbe
00000290: d177 9ebd 7a5d adbd ca83 1b3d a38f b1bd
000002a0: fcc8 d7bd dedd 63bd 46bb b33c 0cf8 863e
000002b0: 7202 953d b02d 46be cffb 8c3d 19bb 3d3c
000002c0: 8d39 333e e04b 93bd fb8a a3bd 4e1c 823d
000002d0: 90ef 7f3d bbfe 28be 30cb 8fbd 797c 8cbd
000002e0: e01a ed3d 6f45 f73d ad48 293e 932d 233e
000002f0: 5db3 0fbd 0979 323e f526 15be 6901 773d
00000300: 7d66 58bd 3b5e 90bd 283d f7bc ab64 bcbd
00000310: 023a 763e 1a2b cdbd f61b 313e f27e 0f3e
00000320: 0139 c5bc 316c 1c3c 4883 cb3c a80c e13d
00000330: f895 523c b08d 04be 0d98 163e d12d 1d3e
00000340: 34bc 54be 9f91 8e3e d663 853d d8e1 93bd
00000350: 007e 33be 2520 2d3d 1640 f9bd 5067 433d
00000360: 3b78 02bd 7061 803e 22b4 0cbe 076a 09bd
00000370: 5962 fdbd d47c 8cbd 04db aa3d ea42 0bbe
00000380: 9357 99bd 475d 5dbe d8d6 1a3e 7715 783e
00000390: cdb8 113e 6362 273d 5de7 64be 6427 ff3d
000003a0: 6a50 463d c116 173d c1ff 2ebe 3c78 633d
000003b0: c513 783e 1cd8 d6bd 6ef1 5a3e 74fd 143e
000003c0: a07a 7abe cb4e 88bd 6b6a 1c3d ffb7 b6bd
000003d0: bac0 313e da20 c43c 7ce5 84bd 1753 453d
000003e0: b241 75bd b063 99bd 7a2b c6ba 683f 593e
000003f0: b863 263d aef6 513d 8635 ba3d 712f 9bbd
0.13844067 0.169676 0.09226144 -0.18874954 0.12888634 -0.06743438 -0.032894272 0.1551532
-0.12635458 -0.0091386065 0.007966467 0.12912798 -0.12479539 -0.03647297 -0.0037747486 -0.10255833
-0.09263449 0.073457874 0.080604635 -0.1522965 0.08617249 -0.03319422 -0.036514226 0.0071077677
0.06613616 -0.07007377 0.065683365 -0.06076451 -0.09621386 0.12143212 -0.19121888 0.04969511
-0.010262296 0.070228666 -0.007897538 -0.122793645 -0.099519886 0.10297195 0.036325958 -0.118482366
0.12362425 0.008007384 0.10413514 0.098013684 0.12706241 0.009991462 -0.04193297 -0.075783275
-0.088514656 -0.12580776 0.12417311 -0.11494301 -0.09237394 0.07419772 0.2088891 -0.027673654
-0.13752973 -0.09039358 -0.09021017 0.100865476 -0.16608818 -0.20289595 -0.02103178 0.06868706
0.004052414 -0.18974926 0.14192589 -0.15401141 0.088139914 0.12524326 0.06432232 -0.13210693
0.000971777 -0.053881083 0.09490904 -0.19785014 -0.03327958 -0.17506804 0.023685427 -0.07807531
-0.09695517 0.1745741 -0.21126369 0.16559713 0.043354694 0.05252363 -0.11088067 0.12656139
-0.056992933 -0.22957614 -0.0909937 0.084928274 -0.055112522 -0.034131095 -0.031511504 -0.14735255
0.060205266 -0.24239828 -0.040718913 -0.15888844 0.049145516 -0.20301628 -0.18625388 -0.029779626
0.008405319 -0.11974966 -0.0016076145 -0.20613666 0.06338549 0.1392765 0.03260552 0.03121176
-0.12546165 -0.09962806 -0.05474169 -0.017665293 0.13843475 -0.26620233 -0.23084287 -0.005070465
0.09494064 -0.0052948003 0.00095517206 -0.14538883 0.14042911 0.0046788193 -0.064050816 -0.24834661
0.07900465 0.13614093 -0.16547556 0.09797891 0.11382907 -0.2469655 0.022742396 0.18166858
0.10947747 -0.029645273 0.083541974 0.17744625 0.12748013 -0.011306835 0.29276398 0.13507539
-0.14816049 -0.24908055 0.24657571 -0.13853261 -0.16381228 0.2462638 0.22515476 0.10974339
0.16896172 -0.101051204 0.22146095 0.22784753 0.04720563 -0.094710775 0.06757281 0.07998841
0.13186719 0.16507839 0.2146034 -0.15624207 -0.07737697 -0.08465095 0.03796748 -0.08669975
-0.105363816 -0.05563151 0.021939885 0.2636112 0.07275857 -0.19353366 0.06883966 0.011580252
0.17502423 -0.071922064 -0.07985493 0.06353055 0.062484324 -0.16503422 -0.07021177 -0.06859679
0.115773916 0.1207379 0.1653163 0.15935354 -0.035083164 0.17428984 -0.14565642 0.06030408
-0.052832115 -0.07049223 -0.030180529 -0.091988884 0.24045566 -0.100179866 0.17295823 0.1401327
-0.024075033 0.009547279 0.024842873 0.10988742 0.012853138 -0.12944674 0.1470644 0.15349509
-0.20774919 0.27845475 0.06513183 -0.07220811 -0.17528534 0.042266984 -0.121704265 0.04770595
-0.031852942 0.2507434 -0.1374059 -0.03354838 -0.12372274 -0.068597466 0.08342555 -0.13599744
-0.074874066 -0.21617614 0.15121019 0.24226938 0.14230652 0.040865313 -0.22353883 0.12458685
0.048416533 0.036886934 -0.1708975 0.055534586 0.24226291 -0.10490438 0.2138116 0.1454981
-0.2446084 -0.066556536 0.038187426 -0.08921813 0.17358676 0.023941446 -0.06489083 0.048174944
-0.059877105 -0.07489717 -0.0015119158 0.21215594 0.040622443 0.051260643 0.0909224 -0.07577408

arith.constant2 f4 [128, 256]
00000000: 293f bcbc b7c7 203c dd4c 823d d075 13bd
00000010: 9e95 dfbd ed76 b9bc db27 5dbd db75 69bd
00000020: ed17 96bc 3653 2a3d 9120 9bbd ff61 093d
00000030: 6761 6ebd 6ea9 75bd d055 e9bb d027 dbba
00000040: 644f c73d 48cc 11be 7cf2 823d 02f4 5ebc
00000050: 7f4b 833d 1610 8ebd 1076 8abd 0a42 963d
00000060: 7b04 0c3e 7b03 273e cb2e 3ebd d4c3 d8bd
00000070: e82a d63d 4a13 bb3a c25e a63c c013 02be
00000080: 59e0 b3bd 6ebb 083d 0973 d8bd 1cda 473c
00000090: 117a ef3c f7be 973d 22a7 443e f6ea 97bd
000000a0: f393 ec3c 1a66 923d c767 7d3e fd50 a13d
000000b0: b498 263e aa7e c53d c273 113d b330 023e
000000c0: 2381 a33d 14a3 9d3d 0c30 2a3e d20d 39bd
000000d0: 7a6e 723d 06d9 95bd 0cf4 a63d 92a1 813d
000000e0: 0e29 bd3c d9cb 7d3c 179e 37bd b535 c1bd
000000f0: ece7 b13d acc2 783d 0a10 45bd 086f 203e
00000100: 8c3a eabd 195d 46bc f752 10bd 53e0 013e
00000110: 30d0 c33d 8058 103e 022a b4bc 434b 2ebe
00000120: fa94 91bc 559d c5bd 2a24 0fbe 4a0a 463e
00000130: f29e fe3c a25f acbd 2b17 76bc a29b 823d
00000140: be5c 483e d274 febd e00f 24bd 7be3 25bd
00000150: d4ca cc3d 4d09 d13c 6594 623d 12be 4f3e
00000160: 905a 853c db74 29be 5ece 3abd 3aef 8ebc
00000170: 37df 06bd 480d b43d 3a96 1e3e cfdd 6d3d
00000180: 68a6 513e cc2f 02be dbae 6a3b 4289 2bbd
00000190: eab5 053d 7f0f c4bb c3ea 9f3d 14d1 913d
000001a0: 6104 7c3d d1e6 84bd 05c5 bfbc 2595 683b
000001b0: 0d32 bc3d fd44 f33b 1296 1f3e 1931 763d
000001c0: 18d7 8abd 9160 1abd f3ca 4f3b cad7 073e
000001d0: 20eb 833d 3596 7fbb 04e7 42be c5c0 813d
000001e0: de41 c73d 70d7 21bd eda5 f53d 6f5b 2e3c
000001f0: dd76 973d d0f8 293d 0ac7 87bd 80ec b8bd
00000200: 963c c53d d4d6 22bd 5af2 b2bd 602e 5fbd
00000210: 34bb 623d 419f d7bd 8727 093e 7723 40bd
00000220: f607 03be ed74 bb3d 00a1 e3bc 1201 0d3e
00000230: 4730 bb3c 9a57 edbd 8a83 3cbd 022e 51bb
00000240: 7900 db3d a0a7 553d c9bd 93bd 5ec6 a9bd
00000250: 51da bb3c 1bea 49be 17d6 f73d e815 713b
00000260: 24fa a43c 5aa3 71bd 1d52 253e 6107 053d
00000270: d945 c3bb 8fd8 bf3d dbe9 923c ad22 e83d
00000280: 53bf edbd 78f6 bd3c 7dc8 973d d6b0 243e
00000290: 33e5 883d 5d63 e0bc f921 c1bc c69a c13d
000002a0: 8ffb 90bd 68ab 2b3e 06ef 79bd 2301 2bbe
000002b0: e8fe 85be f736 113e a870 9e3c 6c4c 1cbd
000002c0: dc26 d83d b7a6 563d deb2 29be d186 f33d
000002d0: 845a 1a3d f92d ca3c f03f 09be e1cf e83d
000002e0: 48b6 c43c 9dbf cbbd e9b4 af3d 9363 8ebd
000002f0: 7ea5 3ebd f502 e7bc 4628 58bc 2e87 4c3d
00000300: 07ff 86ba 0972 323e 5c11 7a3d 2b89 7fbd
00000310: bfa7 dfbc 4fc3 fe3d 7787 643e e89d 14be
00000320: dc84 90bd d395 df3a 9e1f f03d 02b9 023e
00000330: 62a6 3f3b 4c7f e2bd fa96 303e ab08 813d
00000340: b3ea 5b3d 88be f7bd a160 85bc 77c4 a83d
00000350: 0e88 b03c 1aac 793c 50c0 833d 7a1f d7bd
00000360: 8aa2 9bbb 90e6 af3d be13 a1bd cb10 c83c
00000370: 21a9 753c 632c 12bb 6438 03be 7abe 2b3d
00000380: 1f7a 99bc 83e1 29bd ec6f 3ebd 050b 6b3c
00000390: a468 893c 3aea cdbd 77ce 83be 57b2 863d
000003a0: 38c8 aebc d88e ecbd 3f28 bbbd 0e55 423e
000003b0: ea5a abbd 3e08 3f3e 2e85 5ebe a694 1c3e
000003c0: 72eb 40bc f50a dd3d 989b a83d 07d6 ef3c
000003d0: e971 6f3d 9b29 16bd 8b42 89bd a9a1 173c
000003e0: d555 a0bd 8b0d e3bd 10da 9cbd 3fc6 173e
000003f0: 5716 163e 51a0 e93d 46d2 3bbe 8abd 873d
-0.022979336 0.009813241 0.06362317 -0.036001027 -0.10917209 -0.022639716 -0.053993087 -0.05699716
-0.018321956 0.041583262 -0.07574571 0.033540722 -0.05819836 -0.059976034 -0.0071208254 -0.0016720239
0.097319394 -0.14238083 0.063939065 -0.013607981 0.06410884 -0.06936662 -0.067608 0.07336815
0.13673584 0.16309921 -0.046431344 -0.10584226 0.104574025 0.0014272716 0.020308856 -0.12702847
-0.08783025 0.033381872 -0.10568816 0.012197997 0.02923301 0.074094705 0.19204381 -0.07417862
0.028879141 0.071483806 0.24746619 0.078767754 0.16269189 0.096433 0.035510786 0.1271389
0.07983615 0.0769712 0.16619891 -0.045179196 0.05918739 -0.073167846 0.08152017 0.06329645
0.023090865 0.015490496 -0.0448285 -0.09434072 0.08686814 0.06073253 -0.048111 0.15667355
-0.11436948 -0.012107157 -0.03523537 0.12683229 0.09561193 0.1409626 -0.021992687 -0.17020898
-0.017771233 -0.09649149 -0.13978639 0.19339862 0.03108165 -0.08416678 -0.015020172 0.06377341
0.19566628 -0.124246255 -0.040054202 -0.040500145 0.09999624 0.02551713 0.0553173 0.2028735
0.016278535 -0.16548483 -0.045606963 -0.017448056 -0.032927718 0.08791596 0.15486994 0.05807286
0.20473635 -0.12713546 0.0035809788 -0.041878946 0.03264419 -0.0059832926 0.07808449 0.071199566
0.061527614 -0.06489337 -0.023409376 0.0035489288 0.09189234 0.0074239955 0.15584591 0.060105417
-0.06779307 -0.03768975 0.003170666 0.1326591 0.06441331 -0.0038999442 -0.19033438 0.06335596
0.0972936 -0.039512098 0.119945385 0.010641917 0.07395718 0.04149705 -0.066297606 -0.09029484
0.096306965 -0.039755657 -0.08737631 -0.054487586 0.055354312 -0.10528422 0.13393985 -0.046908822
-0.12796006 0.09153161 -0.027786732 0.1376994 0.022850169 -0.11588974 -0.046023883 -0.0031918292
0.106934495 0.052161813 -0.07213933 -0.08289789 0.02293125 -0.1971821 0.12101381 0.0036786739
0.020138808 -0.058993675 0.16144605 0.03247774 -0.005959254 0.09367477 0.017933777 0.11334739
-0.11608758 0.023188815 0.07411287 0.16083083 0.06684341 -0.02739113 -0.02357577 0.09453349
-0.07079231 0.16764605 -0.061018966 -0.16699652 -0.2617104 0.14181124 0.019340828 -0.03815882
0.10554287 0.052405085 -0.16572139 0.118909486 0.03768398 0.024680125 -0.13403296 0.11367775
0.0240127 -0.09948657 0.08579428 -0.06952586 -0.046544544 -0.028199652 -0.013193196 0.049933605
-0.0010299393 0.17426313 0.06105171 -0.062386673 -0.027301667 0.12439596 0.223173 -0.14513361
-0.07056591 0.0017058201 0.117247805 0.12765887 0.002924346 -0.11059436 0.17245093 0.063004814
0.053690623 -0.12096888 -0.016281428 0.08240598 0.02154925 0.015238786 0.06433165 -0.105040506
-0.004749601 0.08588898 -0.07865094 0.02442207 0.014993937 -0.0022304289 -0.1281448 0.0419297
-0.01873499 -0.04147483 -0.046493456 0.014345889 0.01677353 -0.10054441 -0.25743458 0.065769844
-0.021335706 -0.11550683 -0.09138536 0.18977758 -0.0836695 0.18655488 -0.21730492 0.1529108
-0.011774885 0.107931055 0.08232802 0.02927686 0.058458243 -0.03666077 -0.06702145 0.009254851
-0.07828871 -0.110865675 -0.076587796 0.14821719 0.1465696 0.11407531 -0.18341932 0.066279486

arith.constant3 f4 [256, 512]
00000000: e473 a43c 40ae 65bd db12 5bbd 6326 9cbd
00000010: 6687 f0bd df33 08bc 0317 cabc be4a afbc
00000020: 0e7b 8dbc 3b5a d7bd e1d8 01bb 93ef 8b3d
00000030: d650 dcbd 863c b7bc 8808 aebd 41ba 03be
00000040: 1124 4bbd 8157 45be d79b 43bd b747 013d
00000050: 5caa d6bd 5355 133d 1fab d4bd b081 6bbd
00000060: ffa7 153d 1992 cd3d 621b a1bd 43e0 9bbd
00000070: a2ca cdbd 5f78 9f3d 1699 6dbd 172c c93d
00000080: 3695 b03c 1c50 ad3d 9e50 79bd 4c10 7abc
00000090: b119 a13c b9de ffbc d9e6 5a3d c394 e9bd
000000a0: 764c c33c 2b1a dfbb 1024 9c3d 3755 c2bd
000000b0: a7ba ad3c bd1b 853c 964a c3bb 9a24 30bd
000000c0: 9c75 f1bd 7505 d3bd cf77 183c f414 cfbd
000000d0: 6c71 013e 8476 a53c a515 82bd bf54 ae3b
000000e0: 5e17 4cbc 0ebf e2bd 5cc5 463d 2cfe 31ba
000000f0: e4fb 9ebd b85b 6abc 6f3c 443c d164 71bd
00000100: 30fb 06be 5511 cb3c 2b02 733c da4e 0ebc
00000110: b512 48bd c32b c9bb 7151 62bd 3f19 42bc
00000120: 71b0 3c3d 4146 d4bd d3c0 233d 96d8 9cbd
00000130: 5383 bfbc eaf1 05bd ef66 463d dd6e 55be
00000140: 4aca eebd 0756 873d 7348 173b d84b 09bd
00000150: 568f 86bd 5294 00bd f24b 9e3d faad 48bd
00000160: 8f90 c23d 85ac ed3d 0998 47bd 34f1 c5bc
00000170: 4323 b8bd b2e2 e83c bb52 b1bd c76c 2a3e
00000180: b794 d7bc 6637 afba 69f7 3a3e 54b5 f93d
00000190: 1c1f 08be 697a 1abd c6ca 16be d775 a13c
000001a0: 8f58 0bbe dafc 1d3e 0a51 c4bd 44da 8cbd
000001b0: 31aa 753d 19ee 813d aeac 6b3c 8bb4 f83c
000001c0: 7543 e93c ac13 d13c 1a28 e23d e152 2c3d
000001d0: 4587 3fbd 20cb 3d3d 016b edbd c0f6 993d
000001e0: c564 da3c 45a9 86bd 6880 06be 3148 bbbb
000001f0: 8305 783d ad13 9cbd c8fe 5d3d fd95 52bd
00000200: c54e cebd deb3 f33b 0e5d babc b6f0 33bd
00000210: 9ba4 783d c8d6 e53d 3422 4fbd 76ff 99bd
00000220: de72 e7bc 495c b3bd 8f99 c63b 5e62 89bd
00000230: 0b11 c0b9 bbb0 febc a92a 0abd 7c91 45bd
00000240: 02ca 883c b392 11bd 2e72 dbbd bda0 2e3d
00000250: c94c e03c cf9f dc3d bdcf 41bd 7a05 20bd
00000260: 5e42 7b3d 8a7b 11bd de34 19bd 56e9 32be
00000270: 9480 dfba 3257 35bd 6176 c53c a5ed 15bc
00000280: 0f9d 9a3d 52ce 08be 0c55 c33d 6a18 af3c
00000290: d530 9fbc 567d 9abd 5a2e 31bd 72dd 873d
000002a0: 5822 423d e44e 503d b595 833d 674e 883c
000002b0: 32b3 b6bd e486 6f3d 6b60 d7bd 0161 553d
000002c0: eb6d debd 1d67 873d 2f83 ddbb bcbc a0bd
000002d0: 8e83 5a3c 05b0 82bb 7c7a f8bd fa78 243d
000002e0: db28 0ebd d971 8d3d d35c aabd 1a88 8e3d
000002f0: cf44 c1bc 0640 dabc 51cf 76bd 662c aebd
00000300: 87b9 6bbd be16 b43c a516 ba3d 7cab ce3d
00000310: 9a1a 1abd 76a1 49bc 4f89 973d b79c afbd
00000320: 7e07 0f3d 985e da3c cf61 fa3d ebb3 8abc
00000330: 5bd1 e23d 947c 133d 00fb 413c 82f4 b63d
00000340: 1aa5 d8bd 5a3f 1b3d 4827 aa3c e4d5 a83b
00000350: 485b 2fbd 56ee 293d 8aa0 003e ed9d c93b
00000360: 0ad7 3a3d ea3e df3d 46dd 29bd ef2d 00be
00000370: 7ce4 82bd 7f30 283d 4dbd ea3d 25dc f6bd
00000380: e55e 233d d089 a73d 47e0 bdbd 155a f8ba
00000390: 22c0 7dbd 5721 823c eef9 5bbd 02c9 f7bd
000003a0: c671 e03a e0b6 76bc 3839 623c 91eb 133d
000003b0: 39e0 1c3d fcf4 be3c 398f a93d 08b6 7bbd
000003c0: 84e9 8eba 8af4 1dbe 3fec 31bd 9aea 393d
000003d0: 703d 3f3d 78eb 253e 56f7 c43d 7c45 923a
000003e0: aefc 7dbd 5bc9 913c 8f07 613d 5e10 823d
000003f0: c873 15bd 8c36 353d e24b 823c 1c15 19bd
0.020074792 -0.05607438 -0.05348478 -0.07624509 -0.11744575 -0.008313148 -0.024669176 -0.021397945
-0.017270591 -0.10515257 -0.0019813108 0.068328045 -0.10757606 -0.022367727 -0.08497721 -0.12864019
-0.049594942 -0.19271661 -0.047756042 0.031562533 -0.10481712 0.035970043 -0.10384201 -0.057496727
0.036537167 0.100376315 -0.07866551 -0.07611134 -0.10048415 0.07786631 -0.058007322 0.098228626
0.021555524 0.08462545 -0.0608679 -0.015262675 0.01966557 -0.031234132 0.05344281 -0.11405327
0.02384017 -0.0068085394 0.07624066 -0.0948891 0.021207167 0.016248578 -0.005959819 -0.043003656
-0.1179001 -0.10303775 0.009305908 -0.10111418 0.12640923 0.020198114 -0.063517846 0.005320161
-0.012456743 -0.11071597 0.04852806 -0.0006789889 -0.07762888 -0.014304094 0.011977299 -0.058934037
-0.13181758 0.024788538 0.01483206 -0.008685792 -0.048845965 -0.00613925 -0.05525345 -0.011846839
0.046066705 -0.10364962 0.039978813 -0.07658498 -0.02337805 -0.03270141 0.04843801 -0.20843072
-0.11659677 0.06608205 0.0023083955 -0.033519596 -0.06570308 -0.03139145 0.07729329 -0.048994042
0.095002286 0.11605171 -0.048728976 -0.024162866 -0.08991101 0.02842841 -0.08658358 0.16643058
-0.02631603 -0.001336795 0.18258442 0.12192789 -0.13293117 -0.037714396 -0.1472579 0.01970951
-0.13608001 0.15428486 -0.095857695 -0.06877568 0.05997676 0.06344242 0.014384432 0.030359527
0.028474549 0.025522076 0.11042805 0.042071227 -0.046759862 0.046336293 -0.11592675 0.07517767
0.026659379 -0.06575254 -0.1313492 -0.005715393 0.06055213 -0.0762094 0.054198056 -0.05141257
-0.10073618 0.0074372133 -0.02274945 -0.04393073 0.060703855 0.11222607 -0.050569728 -0.075194284
-0.028253015 -0.08757836 0.006060786 -0.06708215 -0.00036633792 -0.031090131 -0.03373209 -0.048234448
0.016697887 -0.035540294 -0.107151374 0.04263376 0.027380364 0.107726686 -0.047317255 -0.039067723
0.06134259 -0.035518207 -0.037403934 -0.17471823 -0.0017051869 -0.04427261 0.024104299 -0.009150897
0.07549488 -0.13359955 0.09537706 0.021373946 -0.019432465 -0.07543437 -0.043257095 0.06634034
0.047396034 0.050856486 0.06425039 0.016638948 -0.089208975 0.05847825 -0.10516437 0.052094463
-0.10860809 0.06611464 -0.006760023 -0.07848498 0.013337029 -0.0039882683 -0.12132737 0.040154435
-0.03470693 0.0690648 -0.08318486 0.06959553 -0.02359238 -0.026641857 -0.060256306 -0.08504562
-0.05754998 0.0219835 0.0908635 0.10091302 -0.037623025 -0.012306562 0.073992364 -0.08574813
0.034919254 0.026656434 0.12225687 -0.016931495 0.11075088 0.03600748 0.011839628 0.08933355
-0.105783656 0.037902214 0.020770684 0.005152451 -0.042811662 0.04148706 0.12561241 0.0061528594
0.045615233 0.10900672 -0.04147079 -0.12517522 -0.06391236 0.041061874 0.114618875 -0.12053708
0.03988542 0.081805825 -0.09271293 -0.0018947745 -0.06195081 0.015885038 -0.05370515 -0.12098886
0.0017123751 -0.015058249 0.013807587 0.036113326 0.038299773 0.023310177 0.08279271 -0.061452895
-0.0010903333 -0.15425315 -0.043438192 0.04538975 0.04668945 0.16203105 0.09617488 0.0011159624
-0.062008552 0.01779621 0.05493885 0.06350778 -0.03648737 0.044241473 0.015905324 -0.037373647

arith.constant4 f4 [104]
00000000: e818 37bc 41bc b33b 7f2e 76bd 4195 a5bc
00000010: 3870 3dbc 1b51 48bd af78 0bbe a8ab 58bd
00000020: bc3d cebb 93b3 4ebd f4bd edbc f044 c3bc
00000030: 4c62 5abd c60d c63b 4698 d8bc d87e 0bbd
00000040: fe77 f6bc 77b3 67bc c851 d23c c5c5 8c3b
00000050: ac99 a0bb db8e f6bc 57f9 18bd 87bd 15bd
00000060: 2587 93ba 30da cfba 8771 8abc e820 e43c
00000070: 0720 87bc 79e7 0ebd 5d8c 84bd b744 84bb
00000080: fa70 efbc 25eb 32bd 9128 b8bc 5599 60bd
00000090: 827d 89bd 8b82 9e3b 7a19 993c 56cb 3abd
000000a0: 7b42 063d 9b40 81bc 3c32 43bc 5b04 c5bc
000000b0: 93e7 0bbd 2576 0a3c 20f8 d5bb ab0f 3dbd
000000c0: 0bd1 fabc 5f1b a6bb 10ae 32bd 9452 18bd
000000d0: c557 d8bb e9ec 33bd 825f f6bc 4bdf 01bd
000000e0: c575 833c cc11 19bd 7ca5 b5bc f757 a1bc
000000f0: bd4f 39bc b70b cabb bc7c 64bd 179c 6cbb
00000100: 51e6 d6bc 31b9 14bc 16ff 22bd c9bc 2ebd
00000110: 5d1a d63c 4f44 fbbc 439b b0bc ed8f cabc
00000120: 9668 37bd 064e 54bc a4fe 3fbd c598 52bc
00000130: 5913 f0bc f42f 0c3d 9e1d 9ebc c05c c4bc
00000140: e9c0 6dbc 5069 03bc 5144 e7bc c15a b63b
00000150: a3b2 58bb 797e 34bd d392 abbc 5d45 0b3c
00000160: b4d7 c0bc 128a 2fbd 35a3 18bc 7b2a 00bc
00000170: cca8 4e3b e4a7 f6ba 1e73 cabc a615 4bbc
00000180: 4dc6 4bbc a905 92bc 4eb4 94bd 5228 d5ba
00000190: 182f e5bc fd5e 66bd 6ef7 a1ba 7516 8ebc
-0.011175372 0.005485088 -0.060102936 -0.020212771 -0.0115624 -0.048905473 -0.13620256 -0.05289808
-0.0062939804 -0.050464224 -0.02902124 -0.023836583 -0.0533164 0.0060441224 -0.026439797 -0.034056515
-0.030086514 -0.014141909 0.025673762 0.004296037 -0.0049011316 -0.030097416 -0.037347164 -0.0365577
-0.0011255486 -0.0015857872 -0.016899837 0.027847722 -0.016494764 -0.03488872 -0.06472085 -0.0040365118
-0.029228676 -0.043681283 -0.022480281 -0.05483373 -0.06713392 0.0048373393 0.018688906 -0.045604073
0.032778244 -0.015777877 -0.011913832 -0.024049928 -0.034156393 0.008451019 -0.006529823 -0.04615752
-0.030617258 -0.005069181 -0.04362303 -0.037188128 -0.00660226 -0.043927107 -0.030074839 -0.03170709
0.016047368 -0.037370488 -0.022173636 -0.019695265 -0.011310515 -0.0061659473 -0.05578302 -0.003610378
-0.02623287 -0.009077356 -0.03979405 -0.04266051 0.026135618 -0.03067222 -0.02155841 -0.024726832
-0.044777475 -0.012958055 -0.046873704 -0.012853806 -0.0293061 0.03422542 -0.019301232 -0.023970008
-0.014511325 -0.008020714 -0.028230818 0.005565018 -0.003306546 -0.044065926 -0.020944035 0.008500424
-0.023540355 -0.042856283 -0.009316255 -0.007822628 0.0031533716 -0.0018818346 -0.024713095 -0.012395298
-0.012437415 -0.017824965 -0.07260953 -0.0016262627 -0.027976558 -0.05624293 -0.0012357065 -0.017344693

arith.constant5 f4 [64]
00000000: 1680 14bd 5114 283d 8241 7ebd 9bc4 7e3c
00000010: bf17 b1bc d078 a4bc a427 11bc ce9f 4f3d
00000020: 4cfa f43c 56d5 9e3b 0a04 5c3d 33a4 1abc
00000030: ccee 983c 1363 693d 5e2a 50bc fa35 18bc
00000040: f770 8ebc 586a c13d 1177 3abb da1a 4f3d
00000050: 8165 103c 1a9b 3b3c 8c6a c8bb a3d9 203b
00000060: e1ca 7d3c b2a5 013d 6893 da3c 9424 efbb
00000070: b1c4 5ebc 1e08 0d3d 58f6 79bc 8181 913d
00000080: d15b 033d 94be 32bc ad14 613d 052e 34bc
00000090: d4ed 96bb 161c 363d b29a 02bc 207f 303d
000000a0: 00fc 63ba 0e85 2a3d a547 103d 3b09 d93c
000000b0: fcb6 fcbc 2ecd ca3c 1daa cb3c b548 dabc
000000c0: 43b3 a63d 1160 553c c002 23ba edaa fb3c
000000d0: 442b cc3c ad8d 7bbb 8057 883d 23eb 53bc
000000e0: 7902 433c 4fc3 e93d 7752 a93c 1d57 9cbb
000000f0: 3aa4 c63c 3f43 503d b581 cc3c 5423 8d3d
-0.036254965 0.041035 -0.062074192 0.015549804 -0.021617768 -0.02007714 -0.008859549 0.05068951
0.029904507 0.004847209 0.05371479 -0.009438562 0.018668555 0.05697925 -0.012705414 -0.009290213
-0.01738785 0.094441116 -0.0028452317 0.050562717 0.008813263 0.011450553 -0.006116217 0.0024543784
0.015490265 0.03165216 0.026681617 -0.0072980616 -0.0135967 0.03443157 -0.015256487 0.07104779
0.032069985 -0.010909695 0.05495136 -0.0109973 -0.004605988 0.04446038 -0.007971453 0.043089986
-0.0008696914 0.041630797 0.035224576 0.02649366 -0.030848972 0.02475604 0.02486139 -0.026645998
0.0813966 0.013023392 -0.00062183663 0.030721152 0.024922974 -0.0038384006 0.06657314 -0.012934479
0.011902445 0.11414205 0.020669205 -0.004771127 0.024248231 0.05084538 0.024964193 0.06891504

arith.constant6 f4 [128]
00000000: ea49 d9bb f6ca 7c3c 4193 b4bb d446 8d3c
00000010: b200 4b3a b0e3 4dbc 1ff0 863c c7d3 d9bc
00000020: 5080 9abc 951a 8f3c 6d44 13bd 0890 3f3b
00000030: 276f 753c b186 86bc ed97 123c ff52 acbc
00000040: e853 62bc 517e dc3b cff5 8f3c 0fd4 9abb
00000050: c94d c8bb 749a f73a f93a 253d 467d a13b
00000060: f044 21bc 8ad4 443c 33ec c5bc 9252 273c
00000070: ca31 42bc b20c dcbc f651 d23b f0cc 8abc
00000080: d043 8a3c c9c9 31bc e1f3 cb3c 55b7 eebb
00000090: 1b93 b33c 2ee0 77bb d7c8 fb3b 94b4 f13c
000000a0: c797 6abc a59c 00bc 2a8a 5bbd 1847 733d
000000b0: 88cf 2b3c c0d9 3cbc 8b2a 39bd 13b4 8c3b
000000c0: 0465 3c3c 5aa9 ccbb cfe0 dcbb 3565 ac3c
000000d0: 2500 1f3c 8b09 3d3c 2ebb b0bc 6d76 51bc
000000e0: cc85 b13a 92dc a8bb d29e a93c 5621 03bd
000000f0: 0406 e63b e833 e23c 6c1b 8e3c cd0e dd3c
00000100: 5d7f 97bc d79e 863b bce3 15bd a111 7d3c
00000110: c9bd ab3b aadc 333b 075b d93c 46a8 9a3c
00000120: 2618 073d 23d3 dc3b 7b18 d73c 3e5b 343d
00000130: 38db 8ebc e7ae 07bd 6f01 0d3c a061 f6ba
00000140: 2315 49bb 34b6 8c39 11f4 abba c4c5 14bd
00000150: 72fb 8fbb 3152 04bb 41cb 463c 5b87 643c
00000160: aa75 8e3c aa4f 22ba 72d1 16bd ed71 663c
00000170: 81c7 003d fba5 e1bb 1d3f e73c 3eaa 213c
00000180: becc 383c 6666 343c ae8e 853d 0425 3f3c
00000190: e2a1 ac39 5389 263d 134e b93c 87db c03b
000001a0: 643c 943b 88c5 cbbb 55f4 33bd 7b44 453c
000001b0: e912 be3c fe1a c7bb 7353 20bc 0021 c7bb
000001c0: 0dce fc3b 96bd 2cbd e287 203b 0d24 81bc
000001d0: a167 15bc 91c7 b43c db32 a83c cef6 e63c
000001e0: af5e 863c acd9 a93c d553 d03c 359d e03b
000001f0: bd03 08bc 39c4 c73c d339 1cbc b678 9e3c
-0.0066311257 0.015429249 -0.005510718 0.017245688 0.0007743939 -0.012566492 0.01647192 -0.026590241
-0.018860012 0.01746873 -0.035953928 0.0029230136 0.014980114 -0.016421648 0.008947355 -0.02103567
-0.01381395 0.0067289253 0.017573265 -0.0047249864 -0.0061127883 0.0018890635 0.040339444 0.004928264
-0.009843096 0.012013564 -0.02416048 0.010212557 -0.011852691 -0.026861522 0.006418462 -0.016943425
0.016878039 -0.010851332 0.024896564 -0.0072850385 0.021920731 -0.003782283 0.007683854 0.029505052
-0.014318413 -0.007849847 -0.05359856 0.059393972 0.010486491 -0.011526525 -0.045206588 0.0042939275
0.011498693 -0.006245774 -0.0067406665 0.021044353 0.009704624 0.01153792 -0.02157363 -0.012784583
0.0013543903 -0.005153247 0.020705614 -0.032014214 0.00701976 0.027612641 0.01734706 0.026984597
-0.018493349 0.0041082907 -0.036594138 0.015446098 0.00524113 0.0027444758 0.026532663 0.018879067
0.032982014 0.0067390366 0.02625679 0.044032328 -0.017438516 -0.033125784 0.008606299 -0.0018797405
-0.0030682764 0.00026838633 -0.0013119002 -0.036321416 -0.0043939883 -0.0020190591 0.01213342 0.013948287
0.017390091 -0.00061916804 -0.036820836 0.014065248 0.03144026 -0.0068862415 0.028228337 0.009867249
0.011279283 0.011010742 0.065213546 0.01166654 0.0003292701 0.040658306 0.022620237 0.0058855447
0.0045238007 -0.006218616 -0.043934185 0.012040253 0.023202376 -0.0060762158 -0.009785521 -0.006076932
0.007714993 -0.04217299 0.0024495055 -0.01576426 -0.009118945 0.022067817 0.020532062 0.028193858
0.01640257 0.020733677 0.0254306 0.006854678 -0.0083016725 0.024385558 -0.009535271 0.019344669

sequential_1/dense_1_2/Add/ReadVariableOp f4 [256]
00000000: 3702 c9bb 5974 1b3c c731 a23b d99b a5bc
00000010: f56c 773c 962d 893b 70f7 623c d586 513a
00000020: 1c64 88bc 204f 783c e61d 01bb a532 7b3c
00000030: 518d 323c 9f88 e83b ca0b 4ebb 80b1 1f3c
00000040: ad9c 973b 2271 793b 47cb 1c3d 50ff 8f3c
00000050: 9ed2 f3bb 89bd 2e3c c934 453a 0ca6 cabb
00000060: 75e1 59bc ec85 bfbb 78d5 663b 1295 07bd
00000070: e12d 54bc 0fa1 9dbc 8bfc 5d3c 396e 0f3b
00000080: 7d6d 343b 7418 92bc 516b 483c 179d 1bbb
00000090: 4aeb a53c a205 343c 4ec7 833c 34c2 03bc
000000a0: ba57 0e3c e1f9 4f3c 5631 053c f968 f13b
000000b0: 782e eebb 7c41 aeba 7e83 a8bc 3ce0 6b3c
000000c0: 303a 3dbc b3b1 c0bc 1f16 2b3b 2d27 5dbb
000000d0: f048 6c3b 9901 a13c 061a 72bc 4b73 2f39
000000e0: 5f9b e83b 4091 38bb 2c34 a6bc 77c3 373c
000000f0: e150 13bc 4cf4 443c 4ac5 d13c de07 29bc
00000100: 84a7 b33b 17c6 baba 7725 b43c 67eb 313c
00000110: 114a 6cbc 70fc 9d39 c74e 403c 3099 123b
00000120: c011 68bd e706 a23b dfbd 0b3c e4b3 12ba
00000130: ae42 023c 7377 133b bc3d ce3c e572 a23c
00000140: 375c 6dbc 29b0 b03c 16fa 09bc faae 8a3c
00000150: cd2f 6a3c 1fe6 8cbc 69b7 d03b 7e62 a7bb
00000160: bcfb 80bc 1ec0 0cbb 7795 f43b c01f f9bc
00000170: 9b5e 623b c509 39bc 8942 d43a c025 b93c
00000180: 6147 d5bb f147 1d3b 5f53 e1bb eea6 34bd
00000190: 6acb d43b 3ebf aab9 b222 09bb 5276 0a3c
000001a0: 4e53 dc3a fbd5 7b3b a8d4 9dbb 4ba9 f8bb
000001b0: 088b c63b 9462 97bb 48f0 6cbc 00ff 783c
000001c0: 6a72 d8bc a05f 83bc 9acb e6bb eeff ac3c
000001d0: 6af0 23bc 05f5 2d3c 5e28 3e3c 8570 51bc
000001e0: 3370 b239 49d2 56bc 3231 19bc 859c 8e3c
000001f0: 21c0 ddbb 115c dbbb c7a6 b03c 2bcb fabc
00000200: dc07 5abb 8e18 a6bc 1b8a c63c 1139 563c
00000210: d960 a8bc fc5c 233c 7b55 00bc a836 bf39
00000220: 190b 3b3c e183 bf3b b01b bc3c c328 b63b
00000230: 3ccd b33c 71ba 8a3a 2d4f fbbb e656 f03c
00000240: d027 ecb7 d69e c73c 88cc 43bb bc52 193c
00000250: 65a8 5a3c 8284 8c3b f827 a53b b488 4abc
00000260: c3cd d93c 1a35 e03b 7beb 223d ce6e a53c
00000270: 3a33 c23c 7de7 623c 2462 863c b858 a93c
00000280: ed46 833c e147 dcbc 3a36 1abc 9073 af3c
00000290: 2bb3 643b 8b07 a23a f1ad bc3c 41a1 423c
000002a0: 2f9c b53a b85a a93b 5331 ae3a db4d 6a3c
000002b0: 4814 513a 193f 14bd 1d9c d9bc d871 e13b
000002c0: 6a3f b0ba 98cd aa3c e8b4 19bc 0db2 b43b
000002d0: ce64 273c 8296 54ba 102a 3a3c 310e 50bc
000002e0: 005a 81bb 0836 113b b545 98bc 5c7e 163d
000002f0: 7b1d b0bc b45b 1fbb 39f0 043d 1511 673c
00000300: 17af 043b fbaa 7e3c 47ee 203d b4a7 753c
00000310: cca2 f1bc a43c 3b3c e24b 1f3b 4232 06bc
00000320: 4dba a4b9 374c 26bc 7422 3b3c c5f9 b9bc
00000330: 30ff 0a3c d3a8 83bb c8d9 973c 5154 073c
00000340: 5bd4 82bc 1ea6 b9bc 5eb1 e93b 9194 e83c
00000350: ec55 3dbc 8ce3 2d3c 03ec 863c e3c0 723c
00000360: e56b 24bd f39a ee3b 47b4 af3c b8d2 8fbc
00000370: 2c6f 0f3c c348 ccb9 1821 9e3c d2da 733b
00000380: 602f 1c38 af0f 6cbc 433c 52bc 7fc3 9b3c
00000390: 2725 c43b 9d61 7b3c e9c4 353c 9646 18bd
000003a0: 7636 4b3c 6d66 96bc 7ac8 7fbc c32f 3fbb
000003b0: c530 213c 020e 79ba 7217 3d3c a991 a53c
000003c0: a9cb 6c3c fa0f ee3b 6fab a2bc d0dc 83ba
000003d0: cea5 d8ba a492 7a3c 2d3d 5e3b 9920 00bd
000003e0: ffc2 21bd 061b 173c eecb 93bc 32f2 6c3c
000003f0: 9ec4 e7bc 5b83 abbc f2a6 d9bc 6a41 58ba
-0.0061342972 0.009488189 0.0049497816 -0.020215916 0.015101661 0.0041863425 0.013852939 0.0007992809
-0.016649298 0.015155584 -0.0019701659 0.015331899 0.01089795 0.0070963646 -0.0031440132 0.009746909
0.0046268315 0.0038061817 0.038279798 0.017577797 -0.007440879 0.010665306 0.0007522819 -0.006184345
-0.013298382 -0.005844822 0.0035222452 -0.03310115 -0.0129503915 -0.019241838 0.0135489805 0.0021885766
0.002753108 -0.017833926 0.0122326175 -0.0023744756 0.020253796 0.010987671 0.016086247 -0.008041907
0.008687908 0.012693853 0.008129438 0.00736725 -0.007268723 -0.0013294662 -0.020570513 0.014396723
-0.0115495175 -0.023522234 0.0026105714 -0.0033745274 0.0036054216 0.019654082 -0.014776712 0.0001673225
0.0070986 -0.0028162748 -0.02028855 0.011216036 -0.008991451 0.012021136 0.02560677 -0.010316817
0.005482616 -0.0014249709 0.02199052 0.010859347 -0.014421956 0.00030133454 0.011737532 0.002236914
-0.056657553 0.0049446705 0.0085291555 -0.0005596264 0.007950468 0.0022501617 0.025175922 0.019830177
-0.014487318 0.021568375 -0.008421442 0.016929138 0.014293623 -0.017199574 0.0063695204 -0.0051081767
-0.015745036 -0.0021476815 0.0074641067 -0.030410647 0.0034541253 -0.011293833 0.0016194145 0.022601008
-0.006508753 0.002399918 -0.0068763937 -0.04410451 0.0064939754 -0.00032567413 -0.002092522 0.008451061
0.0016809495 0.0038427103 -0.0048166104 -0.0075885407 0.0060590543 -0.0046199057 -0.014461584 0.0151975155
-0.026421744 -0.016036808 -0.007043314 0.02111813 -0.01000605 0.010617499 0.011606304 -0.012783174
0.000340344 -0.013111659 -0.009350108 0.017408619 -0.0067672883 -0.006694325 0.0215639 -0.030614456
-0.0033268845 -0.02027538 0.024235776 0.013075129 -0.020553993 0.0099709 -0.00783288 0.0003647108
0.01141622 0.0058445786 0.022962421 0.0055590584 0.02194845 0.0010584128 -0.0076693506 0.029338311
-2.8151931e-05 0.024367731 -0.0029876549 0.009358104 0.013345812 0.004288257 0.005040165 -0.012361694
0.026587373 0.0068422677 0.039775353 0.020194437 0.023706067 0.013849136 0.016404219 0.020672187
0.016025031 -0.026889743 -0.009412343 0.02141741 0.0034896831 0.0012361867 0.02303216 0.011879266
0.001385575 0.005168285 0.0013289846 0.014300789 0.00079757394 -0.036192987 -0.026563698 0.0068800263
-0.0013446633 0.020849988 -0.00938151 0.0055143894 0.010216905 -0.00081095856 0.011362568 -0.012698696
-0.0039474964 0.002215745 -0.018587926 0.0367416 -0.021498432 -0.0024316134 0.032455657 0.014103194
0.0020245963 0.015543695 0.03928974 0.014993597 -0.029496573 0.011428032 0.0024306704 -0.008190693
-0.00031419322 -0.010150007 0.0114217885 -0.022702107 0.008483693 -0.004017928 0.018536463 0.008259849
-0.0159704 -0.022662219 0.0071317395 0.028391154 -0.01155613 0.010613333 0.016469961 0.014816496
-0.04014196 0.007281655 0.021448268 -0.017556533 0.008754533 -0.00038964124 0.01930289 0.0037209284
3.723742e-05 -0.014408036 -0.01283175 0.019014118 0.005985874 0.015343097 0.01109431 -0.03717669
0.012403121 -0.018359387 -0.015611762 -0.0029172755 0.009838288 -0.00095006835 0.011541234 0.020211058
0.014452853 0.007265088 -0.019857137 -0.0010060314 -0.0016528906 0.015293751 0.0033910975 -0.031281088
-0.039492603 0.0092227515 -0.018041577 0.014462041 -0.028291997 -0.020936659 -0.026568864 -0.00082494935

sequential_1/dense_1/Add/ReadVariableOp f4 [512]
00000000: f840 663d e9f8 f13c 5df8 99bc 7160 4a3c
00000010: 0453 cd3c ee1d bb3c c98d ddbb b8e9 a6bc
00000020: 035c f33c eff3 c3bc 066c 303c f678 423c
00000030: 2ddc 443d c097 afb9 d445 253c 7a13 1b3c
00000040: aadf d43c 62ff f93b 35f4 1fbb 4317 a7bc
00000050: 536d c93c 5ca9 6d3b dec3 05bb bf35 713c
00000060: 4f72 873c 7648 883d 11e3 113c 4144 99bb
00000070: 7bb5 2d3d fb33 36bb bdd9 d63c 5107 073d
00000080: 3b48 25bd 780c 4cbd b375 80bc 86f4 a0bc
00000090: 7250 27bd 8de9 663b e5f8 8abc 0b66 8f3c
000000a0: bc5c 15bd 550a cc3b 4427 8dbb 2003 9a3b
000000b0: 988b d13b 4907 b33c 83ae 13bc 5c2b 253d
000000c0: 46d4 3a3d 3298 cdbc 8670 bd3a 5c58 8b3c
000000d0: 6a5b bebb 5f38 b0bb 785d 15bd 9dd1 553c
000000e0: 887c bdbc 3e4a 9ebc 4fdb 82ba e5e0 15bd
000000f0: 108a 073c f1bb cd3c 1f81 913b 86ad d23c
00000100: 0f07 573d 1a9f ea3a 8249 1e3c a33b e23c
00000110: ef21 b1b9 4114 f33b 282a 38bb e970 a33c
00000120: 2447 f73c d0dd e93c ab30 60bc eaba 893c
00000130: e13a 273c a09f 3fbd 681a aabc ed97 09ba
00000140: 6d43 193a a1c2 863b f801 45bc 4c81 e23a
00000150: 1201 59bb 3fac c33b 93f9 443d cd4e 383d
00000160: ee3e aa3c 43b0 e63c fe40 513d 4b78 b7b9
00000170: accb a7bb d5f1 9f3c e5e2 4c3c 1b4b f53c
00000180: 76eb de3c 6e61 93bc 2256 243d a8e0 94bb
00000190: ab44 01bc b502 573d 4280 99bc 0776 173c
000001a0: 049b fbba 4799 2abc 3f65 01bb 9eeb 173d
000001b0: 2eb2 1c3c 2ffa a8bc 5225 8bbb f26a e73a
000001c0: 42bf 913b 7e58 b5bc 6ae2 dfbc e7fa 4a3b
000001d0: 2dd3 3d3c e86b dbba 9109 13bc 64ac ca3c
000001e0: e0db 863c a21d 153c 0015 6a3c 4f2e ee3c
000001f0: 2f63 1f3d ba7d 16bc f117 97bc d365 0bbd
00000200: 69f9 60bb ba07 d13c 2b1f af3b 8703 883c
00000210: b84a 173d b0bd 323d 878a eabc e5d9 653d
00000220: bca0 d13b 14a1 acbc e714 053d 43e4 fdbc
00000230: 1f2b 5dbc 5861 4ebb 1474 db3c 6527 1abd
00000240: 7fe5 ac3c fb41 9abb 307d 1a3d ac4d a0bb
00000250: dd83 853a 1784 383b 9536 9aba f9d1 5d3d
00000260: 3dc9 153c 6408 263c cc73 bd3c 8fad 5e3d
00000270: 7cde 173d f112 a23c ac8e 593d 55ad 393c
00000280: 8a52 62bd 2269 303d c829 98bc ccc2 983b
00000290: de18 a6bc 5601 ed3b 5661 033d caae 2fbb
000002a0: 89e9 fdbc cf18 233c cd7c 9c3a 8a33 27bd
000002b0: ba2c dbb9 a66b 093d 09bd 41bb 9af3 8cbc
000002c0: 5ac1 b53c f858 003d d8d9 ccbb ab90 aebb
000002d0: 98ab b73c d09d b83a 3d97 8d3c cd41 803c
000002e0: d664 093d c0bd f4ba f283 59ba 5267 ca3a
000002f0: ef24 d2bb f8eb 35bd 8df5 ee3c bb87 a5bc
00000300: 90c9 8dbb e92a 36bc ce36 473b 3e9e b73b
00000310: 76c6 bfbb e7b0 973c 09d2 1abc bd30 283d
00000320: 9222 b63b afca 4dbc f277 eabc 6432 fd3b
00000330: 443f b0bc e42c 59bc 0b72 7d3c 4462 f03c
00000340: 88ef de3a d18e f83c 7e71 0639 e523 1939
00000350: 9444 e4bb 56e8 02bc 3e3f 003c 018f e13b
00000360: 3916 b1bc 9bc3 183d 01b9 f03c 5025 653d
00000370: 423f 2a3b 306b 1e3d 6fdc 1d3d b9e3 a3bc
00000380: 262c 10bd dc4a cc39 8242 8dbb 5145 1c3b
00000390: 0af7 ad3c 3b5d f73c 9ba0 013d 544b 9f3c
000003a0: d09c cbbc 1b5d 5bbc 6a9c 0e3d 5722 46bc
000003b0: 6b61 963c 30a9 733c 5155 9e3d 7b73 4a3c
000003c0: 4ae8 d63b 84a6 23bc 5b99 6a3d a337 abbb
000003d0: d2b6 0bbd 24ee bfbb 7800 023d 8e64 f3bb
000003e0: d6f7 543c 596a afbc 9364 c5bb 0132 3ebc
000003f0: f943 253d 8eab de3c b255 9fbc 777d 483c
0.056214303 0.029537635 -0.018795187 0.012352095 0.025063999 0.02284142 -0.006761287 -0.020375118
0.02970696 -0.023920028 0.010767942 0.01186966 0.04806154 -0.00033491664 0.010087449 0.009465093
0.025985558 0.007629321 -0.0024407033 -0.020396834 0.024588263 0.0036264276 -0.0020410935 0.014722287
0.016533999 0.06654446 0.0089042345 -0.004677326 0.0424094 -0.002780198 0.026226873 0.03296596
-0.040352087 -0.04981658 -0.015681123 -0.019647848 -0.040848203 0.0035234422 -0.016964385 0.017504713
-0.03646539 0.0062268176 -0.0043076593 0.0047000796 0.0063948147 0.02185406 -0.009013775 0.040324554
0.045612596 -0.025096986 0.001445309 0.017009906 -0.0058092372 -0.0053778137 -0.036466092 0.013050464
-0.02313067 -0.01932251 -0.0009983572 -0.03659143 0.008272663 0.025114032 0.0044404413 0.025717508
0.052496966 0.0017900199 0.00966108 0.027616328 -0.00033785353 0.007418186 -0.00281013 0.0199513
0.03018529 0.028548151 -0.013683478 0.01681276 0.010206909 -0.04678309 -0.020764545 -0.0005248774
0.0005846534 0.004112557 -0.012024395 0.0017280965 -0.003311221 0.005971461 0.048089575 0.044997025
0.02078196 0.02816022 0.051087372 -0.00034994105 -0.005120715 0.019524494 0.012505268 0.02994304
0.027211886 -0.017990794 0.040121205 -0.0045433827 -0.007889907 0.052492816 -0.018737916 0.0092444485
-0.0019195979 -0.010412521 -0.0019744185 0.037089936 0.009563966 -0.02062711 -0.0042463923 0.0017655774
0.0044478485 -0.022136923 -0.027329642 0.0030972303 0.011585993 -0.0016740533 -0.008974449 0.024740405
0.016462266 0.009101303 0.014287233 0.029074816 0.03891295 -0.009185249 -0.018444033 -0.034032654
-0.0034328348 0.02551638 0.0053442917 0.016603244 0.03693649 0.04363793 -0.028630508 0.056116004
0.006397335 -0.021072902 0.032490637 -0.030992633 -0.01349905 -0.0031491127 0.026788749 -0.037635226
0.021105526 -0.0047075725 0.037717044 -0.0048920717 0.0010186393 0.0028154904 -0.0011765534 0.054155324
0.009142217 0.010133836 0.023126505 0.054364737 0.037077412 0.019784423 0.053114578 0.0113328295
-0.055254497 0.043069012 -0.01857461 0.0046618935 -0.02027553 0.0072328253 0.03207525 -0.0026807063
-0.030995147 0.009954645 0.0011939049 -0.040820636 -0.0004180426 0.033549927 -0.0029562137 -0.017206002
0.022186924 0.031334847 -0.006251555 -0.0053273044 0.02242069 0.0014085118 0.01728403 0.015656376
0.03354343 -0.0018672273 -0.00082975545 0.0015442169 -0.0064130942 -0.04441449 0.029169822 -0.020206323
-0.0043270066 -0.011118629 0.0030397656 0.0056035807 -0.005852516 0.01851697 -0.00944949 0.041062105
0.0055583203 -0.012560531 -0.028621648 0.0077269543 -0.021514542 -0.013255332 0.0154690845 0.029343732
0.0017008642 0.030341538 0.00012821515 0.00014604589 -0.006966183 -0.0079899635 0.007827578 0.0068835025
-0.021617042 0.03729592 0.029385092 0.055943787 0.0025977646 0.03867644 0.0385403 -0.020006048
-0.035198353 0.00038965687 -0.004310907 0.0023845027 0.021235961 0.030195823 0.031647306 0.019445099
-0.024855047 -0.013388897 0.034817137 -0.012093148 0.018357 0.01487188 0.077311166 0.012356634
0.0065584527 -0.009988431 0.057275157 -0.0052251383 -0.034109898 -0.005857246 0.03173873 -0.0074277585
0.012998542 -0.021413015 -0.0060239523 -0.011608602 0.040348027 0.027181413 -0.019450042 0.012236944
